YOLOv5 temporarily requires wandb version 0.12.10 or below. Some features may not work as expected.
                 from  n    params  module                                  arguments
  0                -1  1       928  models.common.Conv                      [3, 32, 3, 1]
  1                -1  1     18560  models.common.Conv                      [32, 64, 3, 2]
  2                -1  1     19904  models.common.BottleneckCSP             [64, 64, 1]
  3                -1  1      4224  models.common.Conv                      [64, 64, 1, 1]
  4                -1  1     73984  models.common.Conv                      [64, 128, 3, 2]
  5                -1  2    119936  models.common.BottleneckCSP             [128, 128, 2]
  6                -1  1     16640  models.common.Conv                      [128, 128, 1, 1]
  7                -1  1    295424  models.common.Conv                      [128, 256, 3, 2]
  8                -1  8   1463552  models.common.BottleneckCSP             [256, 256, 8]
  9                -1  1     66048  models.common.Conv                      [256, 256, 1, 1]
 10                -1  1   1180672  models.common.Conv                      [256, 512, 3, 2]
 11                -1  8   5843456  models.common.BottleneckCSP             [512, 512, 8]
 12                -1  1    263168  models.common.Conv                      [512, 512, 1, 1]
 13                -1  1   4720640  models.common.Conv                      [512, 1024, 3, 2]
 14                -1  4  12858368  models.common.BottleneckCSP             [1024, 1024, 4]
 15                -1  1   1050624  models.common.Conv                      [1024, 1024, 1, 1]
 16                -1  1    525312  models.common.Conv                      [1024, 512, 1, 1]
 17                -1  1   4720640  models.common.Conv                      [512, 1024, 3, 1]
 18                -1  1    525312  models.common.Conv                      [1024, 512, 1, 1]
 19                -1  1   1182208  models.common.SPP                       [512, 1024, [5, 9, 13]]
 20                -1  1    525312  models.common.Conv                      [1024, 512, 1, 1]
 21                -1  1   4720640  models.common.Conv                      [512, 1024, 3, 1]
 22                -1  1    525312  models.common.Conv                      [1024, 512, 1, 1]
 23                -1  1    263168  models.common.Conv                      [512, 512, 1, 1]
 24                -1  1         0  torch.nn.modules.upsampling.Upsample    [None, 2, 'nearest']
 25          [-1, 12]  1         0  models.common.Concat                    [1]
 26                -1  3   2823680  models.common.BottleneckCSP             [1024, 512, 3, False]
 27                -1  1    131584  models.common.Conv                      [512, 256, 1, 1]
 28                -1  1         0  torch.nn.modules.upsampling.Upsample    [None, 2, 'nearest']
 29           [-1, 9]  1         0  models.common.Concat                    [1]
 30                -1  3    707328  models.common.BottleneckCSP             [512, 256, 3, False]
 31                -1  1    590336  models.common.Conv                      [256, 256, 3, 2]
 32          [-1, 27]  1         0  models.common.Concat                    [1]
 33                -1  3   2561536  models.common.BottleneckCSP             [512, 512, 3, False]
 34                -1  1   2360320  models.common.Conv                      [512, 512, 3, 2]
 35          [-1, 23]  1         0  models.common.Concat                    [1]
 36                -1  3  10234880  models.common.BottleneckCSP             [1024, 1024, 3, False]
 37      [30, 33, 36]  1    107700  models.yolo.Detect                      [15, [[10, 13, 16, 30, 33, 23], [30, 61, 62, 45, 59, 119], [116, 90, 156, 198, 373, 326]], [256, 512, 1024]]
yolov4 summary: 551 layers, 60501396 parameters, 60501396 gradients, 131.8 GFLOPs
Transferred 52/736 items from /root/autodl-tmp/yolo-master/runs/exp4/weights/last.pt
Scaled weight_decay = 0.000375
…
